…
    milestones: ()
  StepLR:
    gamma: 0.9
    step_size: 2
  TYPE: StepLR
SOLVER:
  BASE_LR: 0.0005
  RMSprop:
    alpha: 0.9
  SGD:
    momentum: 0.9
  TYPE: RMSprop
  WEIGHT_DECAY: 0.001
TEST:
  AUGMENTATION: ()
  BATCH_SIZE: 1
  LOG_PERIOD: 10
  WEIGHT: outputs/dtu_wde3/model_016.pth
TRAIN:
  AUGMENTATION: ()
  BATCH_SIZE: 2
  CHECKPOINT_PERIOD: 4
  FROZEN_PATTERNS: ()
  LOG_PERIOD: 50
  VAL_METRIC: <1_cor
  VAL_PERIOD: 0
2021-04-29 00:42:00,018 pointmvsnet.trainer INFO: Build model:
PointMVSNet(
  (feature_fetcher): FeatureFetcher()
  (coarse_img_conv): ImageConv(
    (conv0): Sequential(
      (0): Conv2d(
        (conv): Conv2d(3, 8, kernel_size=(3, 3), stride=(1, 1), padding=(1, 1), bias=False)
        (bn): BatchNorm2d(8, eps=1e-05, momentum=0.1, affine=True, track_running_stats=True)
      )
      (1): Conv2d(
        (conv): Conv2d(8, 8, kernel_size=(3, 3), stride=(1, 1), padding=(1, 1), bias=False)
        (bn): BatchNorm2d(8, eps=1e-05, momentum=0.1, affine=True, track_running_stats=True)
      )
    )
    (conv1): Sequential(
      (0): Conv2d(
        (conv): Conv2d(8, 16, kernel_size=(5, 5), stride=(2, 2), padding=(2, 2), bias=False)
        (bn): BatchNorm2d(16, eps=1e-05, momentum=0.1, affine=True, track_running_stats=True)
      )
      (1): Conv2d(
        (conv): Conv2d(16, 16, kernel_size=(3, 3), stride=(1, 1), padding=(1, 1), bias=False)
        (bn): BatchNorm2d(16, eps=1e-05, momentum=0.1, affine=True, track_running_stats=True)
      )
      (2): Conv2d(
        (conv): Conv2d(16, 16, kernel_size=(3, 3), stride=(1, 1), padding=(1, 1), bias=False)
        (bn): BatchNorm2d(16, eps=1e-05, momentum=0.1, affine=True, track_running_stats=True)
      )
    )
    (conv2): Sequential(
      (0): Conv2d(
        (conv): Conv2d(16, 32, kernel_size=(5, 5), stride=(2, 2), padding=(2, 2), bias=False)
        (bn): BatchNorm2d(32, eps=1e-05, momentum=0.1, affine=True, track_running_stats=True)
      )
      (1): Conv2d(
        (conv): Conv2d(32, 32, kernel_size=(3, 3), stride=(1, 1), padding=(1, 1), bias=False)
        (bn): BatchNorm2d(32, eps=1e-05, momentum=0.1, affine=True, track_running_stats=True)
      )
      (2): Conv2d(
        (conv): Conv2d(32, 32, kernel_size=(3, 3), stride=(1, 1), padding=(1, 1), bias=False)
        (bn): BatchNorm2d(32, eps=1e-05, momentum=0.1, affine=True, track_running_stats=True)
      )
    )
    (conv3): Sequential(
      (0): Conv2d(
        (conv): Conv2d(32, 64, kernel_size=(5, 5), stride=(2, 2), padding=(2, 2), bias=False)
        (bn): BatchNorm2d(64, eps=1e-05, momentum=0.1, affine=True, track_running_stats=True)
      )
      (1): Conv2d(
        (conv): Conv2d(64, 64, kernel_size=(3, 3), stride=(1, 1), padding=(1, 1), bias=False)
        (bn): BatchNorm2d(64, eps=1e-05, momentum=0.1, affine=True, track_running_stats=True)
      )
      (2): Conv2d(64, 64, kernel_size=(3, 3), stride=(1, 1), padding=(1, 1), bias=False)
    )
  )
  (coarse_vol_conv): VolumeConv(
    (conv1_0): Conv3d(
      (conv): Conv3d(64, 16, kernel_size=(3, 3, 3), stride=(2, 2, 2), padding=(1, 1, 1), bias=False)
      (bn): BatchNorm3d(16, eps=1e-05, momentum=0.1, affine=True, track_running_stats=True)
    )
    (conv2_0): Conv3d(
      (conv): Conv3d(16, 32, kernel_size=(3, 3, 3), stride=(2, 2, 2), padding=(1, 1, 1), bias=False)
      (bn): BatchNorm3d(32, eps=1e-05, momentum=0.1, affine=True, track_running_stats=True)
    )
    (conv3_0): Conv3d(
      (conv): Conv3d(32, 64, kernel_size=(3, 3, 3), stride=(2, 2, 2), padding=(1, 1, 1), bias=False)
      (bn): BatchNorm3d(64, eps=1e-05, momentum=0.1, affine=True, track_running_stats=True)
    )
    (conv0_1): Conv3d(
      (conv): Conv3d(64, 8, kernel_size=(3, 3, 3), stride=(1, 1, 1), padding=(1, 1, 1), bias=False)
      (bn): BatchNorm3d(8, eps=1e-05, momentum=0.1, affine=True, track_running_stats=True)
    )
    (conv1_1): Conv3d(
      (conv): Conv3d(16, 16, kernel_size=(3, 3, 3), stride=(1, 1, 1), padding=(1, 1, 1), bias=False)
      (bn): BatchNorm3d(16, eps=1e-05, momentum=0.1, affine=True, track_running_stats=True)
    )
    (conv2_1): Conv3d(
      (conv): Conv3d(32, 32, kernel_size=(3, 3, 3), stride=(1, 1, 1), padding=(1, 1, 1), bias=False)
      (bn): BatchNorm3d(32, eps=1e-05, momentum=0.1, affine=True, track_running_stats=True)
    )
    (conv3_1): Conv3d(
      (conv): Conv3d(64, 64, kernel_size=(3, 3, 3), stride=(1, 1, 1), padding=(1, 1, 1), bias=False)
      (bn): BatchNorm3d(64, eps=1e-05, momentum=0.1, affine=True, track_running_stats=True)
    )
    (conv4_0): Deconv3d(
      (conv): ConvTranspose3d(64, 32, kernel_size=(3, 3, 3), stride=(2, 2, 2), padding=(1, 1, 1), output_padding=(1, 1, 1), bias=False)
      (bn): BatchNorm3d(32, eps=1e-05, momentum=0.1, affine=True, track_running_stats=True)
    )
    (conv5_0): Deconv3d(
      (conv): ConvTranspose3d(32, 16, kernel_size=(3, 3, 3), stride=(2, 2, 2), padding=(1, 1, 1), output_padding=(1, 1, 1), bias=False)
      (bn): BatchNorm3d(16, eps=1e-05, momentum=0.1, affine=True, track_running_stats=True)
    )
    (conv6_0): Deconv3d(
      (conv): ConvTranspose3d(16, 8, kernel_size=(3, 3, 3), stride=(2, 2, 2), padding=(1, 1, 1), output_padding=(1, 1, 1), bias=False)
      (bn): BatchNorm3d(8, eps=1e-05, momentum=0.1, affine=True, track_running_stats=True)
    )
    (conv6_2): Conv3d(8, 1, kernel_size=(3, 3, 3), stride=(1, 1, 1), padding=(1, 1, 1), bias=False)
  )
  (flow_img_conv): ImageConv(
    (conv0): Sequential(
      (0): Conv2d(
        (conv): Conv2d(3, 8, kernel_size=(3, 3), stride=(1, 1), padding=(1, 1), bias=False)
        (bn): BatchNorm2d(8, eps=1e-05, momentum=0.1, affine=True, track_running_stats=True)
      )
      (1): Conv2d(
        (conv): Conv2d(8, 8, kernel_size=(3, 3), stride=(1, 1), padding=(1, 1), bias=False)
        (bn): BatchNorm2d(8, eps=1e-05, momentum=0.1, affine=True, track_running_stats=True)
      )
    )
    (conv1): Sequential(
      (0): Conv2d(
        (conv): Conv2d(8, 16, kernel_size=(5, 5), stride=(2, 2), padding=(2, 2), bias=False)
        (bn): BatchNorm2d(16, eps=1e-05, momentum=0.1, affine=True, track_running_stats=True)
      )
      (1): Conv2d(
        (conv): Conv2d(16, 16, kernel_size=(3, 3), stride=(1, 1), padding=(1, 1), bias=False)
        (bn): BatchNorm2d(16, eps=1e-05, momentum=0.1, affine=True, track_running_stats=True)
      )
      (2): Conv2d(
        (conv): Conv2d(16, 16, kernel_size=(3, 3), stride=(1, 1), padding=(1, 1), bias=False)
        (bn): BatchNorm2d(16, eps=1e-05, momentum=0.1, affine=True, track_running_stats=True)
      )
    )
    (conv2): Sequential(
      (0): Conv2d(
        (conv): Conv2d(16, 32, kernel_size=(5, 5), stride=(2, 2), padding=(2, 2), bias=False)
        (bn): BatchNorm2d(32, eps=1e-05, momentum=0.1, affine=True, track_running_stats=True)
      )
      (1): Conv2d(
        (conv): Conv2d(32, 32, kernel_size=(3, 3), stride=(1, 1), padding=(1, 1), bias=False)
        (bn): BatchNorm2d(32, eps=1e-05, momentum=0.1, affine=True, track_running_stats=True)
      )
      (2): Conv2d(
        (conv): Conv2d(32, 32, kernel_size=(3, 3), stride=(1, 1), padding=(1, 1), bias=False)
        (bn): BatchNorm2d(32, eps=1e-05, momentum=0.1, affine=True, track_running_stats=True)
      )
    )
    (conv3): Sequential(
      (0): Conv2d(
        (conv): Conv2d(32, 64, kernel_size=(5, 5), stride=(2, 2), padding=(2, 2), bias=False)
        (bn): BatchNorm2d(64, eps=1e-05, momentum=0.1, affine=True, track_running_stats=True)
      )
      (1): Conv2d(
        (conv): Conv2d(64, 64, kernel_size=(3, 3), stride=(1, 1), padding=(1, 1), bias=False)
        (bn): BatchNorm2d(64, eps=1e-05, momentum=0.1, affine=True, track_running_stats=True)
      )
      (2): Conv2d(64, 64, kernel_size=(3, 3), stride=(1, 1), padding=(1, 1), bias=False)
    )
  )
  (flow_edge_conv): ModuleList(
    (0): EdgeConvNoC(
      (conv1): Conv1d(136, 32, kernel_size=(1,), stride=(1,), bias=False)
      (conv2): Conv1d(136, 32, kernel_size=(1,), stride=(1,), bias=False)
      (bn): BatchNorm2d(32, eps=1e-05, momentum=0.1, affine=True, track_running_stats=True)
    )
    (1): EdgeConv(
      (conv1): Conv1d(32, 32, kernel_size=(1,), stride=(1,), bias=False)
      (conv2): Conv1d(32, 32, kernel_size=(1,), stride=(1,), bias=False)
      (bn): BatchNorm2d(64, eps=1e-05, momentum=0.1, affine=True, track_running_stats=True)
    )
    (2): EdgeConv(
      (conv1): Conv1d(64, 64, kernel_size=(1,), stride=(1,), bias=False)
      (conv2): Conv1d(64, 64, kernel_size=(1,), stride=(1,), bias=False)
      (bn): BatchNorm2d(128, eps=1e-05, momentum=0.1, affine=True, track_running_stats=True)
    )
  )
  (flow_mlp): Sequential(
    (0): SharedMLP(
      (0): Conv1d(
        (conv): Conv1d(224, 64, kernel_size=(1,), stride=(1,), bias=False)
        (bn): BatchNorm1d(64, eps=1e-05, momentum=0.1, affine=True, track_running_stats=True)
      )
      (1): Conv1d(
        (conv): Conv1d(64, 64, kernel_size=(1,), stride=(1,), bias=False)
        (bn): BatchNorm1d(64, eps=1e-05, momentum=0.1, affine=True, track_running_stats=True)
      )
      (2): Conv1d(
        (conv): Conv1d(64, 16, kernel_size=(1,), stride=(1,), bias=False)
        (bn): BatchNorm1d(16, eps=1e-05, momentum=0.1, affine=True, track_running_stats=True)
      )
    )
    (1): Conv1d(16, 1, kernel_size=(1,), stride=(1,), bias=False)
  )
)
